…
"2026-03-19T19:21:51.088681Z","iopub.status.idle":"2026-03-19T19:21:51.887439Z","shell.execute_reply.started":"2026-03-19T19:21:51.088652Z","shell.execute_reply":"2026-03-19T19:21:51.886400Z"}},"outputs":[{"name":"stdout","text":"Regressor(\n  (loss): MSELoss()\n  (optimizer): Adam[Adam]()\n  (train_metrics): MetricCollection,\n    prefix=train\n  )\n  (val_metrics): MetricCollection,\n    prefix=val\n  )\n  (test_metrics): MetricCollection,\n    prefix=test\n  )\n  (model): UNet2d(\n    (encoder): ConvolutionalEncoder2d(\n      (blocks): LayerList(\n        (0): Conv2dBlock(\n          (layer): Conv2d(1, 16, kernel_size=(3, 3), stride=(1, 1), padding=(1, 1))\n          (activation): ReLU()\n        )\n        (1): Conv2dBlock(\n          (pool): MaxPool2d(kernel_size=2, stride=2, padding=0, dilation=1, ceil_mode=False)\n          (layer): Conv2d(16, 32, kernel_size=(3, 3), stride=(1, 1), padding=(1, 1))\n          (activation): ReLU()\n        )\n        (2): Conv2dBlock(\n          (pool): MaxPool2d(kernel_size=2, stride=2, padding=0, dilation=1, ceil_mode=False)\n          (layer): Conv2d(32, 64, kernel_size=(3, 3), stride=(1, 1), padding=(1, 1))\n          (activation): ReLU()\n        )\n        (3): Conv2dBlock(\n          (pool): MaxPool2d(kernel_size=2, stride=2, padding=0, dilation=1, ceil_mode=False)\n          (layer): Conv2d(64, 128, kernel_size=(3, 3), stride=(1, 1), padding=(1, 1))\n          (activation): ReLU()\n        )\n      )\n      (postprocess): Identity()\n    )\n    (bottleneck): ConvolutionalNeuralNetwork(\n      (blocks): LayerList(\n        (0): Conv2dBlock(\n          (pool): MaxPool2d(kernel_size=2, stride=2, padding=0, dilation=1, ceil_mode=False)\n          (layer): Conv2d(128, 128, kernel_size=(3, 3), stride=(1, 1), padding=(1, 1))\n          (activation): ReLU()\n          (upsample): ConvTranspose2d(128, 128, kernel_size=(2, 2), stride=(2, 2))\n        )\n      )\n    )\n    (decoder): ConvolutionalDecoder2d(\n      (blocks): LayerList(\n        (0): Conv2dBlock(\n          (layer): Conv2d(256, 64, kernel_size=(3, 3), stride=(1, 1), padding=(1, 1))\n          (activation): ReLU()\n          (upsample): ConvTranspose2d(64, 64, kernel_size=(2, 2), stride=(2, 2))\n        )\n        (1): Conv2dBlock(\n          (layer): Conv2d(128, 32, kernel_size=(3, 3), stride=(1, 1), padding=(1, 1))\n          (activation): ReLU()\n          (upsample): ConvTranspose2d(32, 32, kernel_size=(2, 2), stride=(2, 2))\n        )\n        (2): Conv2dBlock(\n          (layer): Conv2d(64, 16, kernel_size=(3, 3), stride=(1, 1), padding=(1, 1))\n          (activation): ReLU()\n          (upsample): ConvTranspose2d(16, 16, kernel_size=(2, 2), stride=(2, 2))\n        )\n        (3): Conv2dBlock(\n          (layer): Conv2d(32, 2, kernel_size=(3, 3), stride=(1, 1), padding=(1, 1))\n          (activation): Identity()\n        )\n      )\n      (preprocess): Identity()\n    )\n    (skip): Cat()\n  )\n)\n","output_type":"stream"}],"execution_count":10},{"cell_type":"code","source":"train_dataset_no_mask = [(im, fluo) for im, fluo, _ in train_dataset]\nval_dataset_no_mask = [(im, fluo) for im, fluo, _ in val_dataset]\n\n
…
